sports_betting_model.pth (torch, 967470 bytes, 10 tensors)

lstm.weight_ih_l0 f4 [512, 82]
000000 54 66 b7 3c 36 9e 74 3d bc c1 d2 3d 0b 67 40 bd
       0.022387661 0.059721194 0.10290858 -0.04697327
000010 f1 6f ea bc 50 09 db 3d e3 58 a0 3c 80 2a 1f 3d
       -0.028617831 0.106951356 0.019573634 0.03885889
000020 7e 10 4b bd 73 c9 d0 3d 33 d4 62 3d 5a 5c 39 3d
       -0.049576275 0.101946734 0.05537815 0.04525409
000030 0c 46 6a bd 9e 2a 32 bd e7 fc c9 3d 06 e2 82 3d
       -0.05719571 -0.043497674 0.098626904 0.06390767
000040 11 b0 a2 3d d1 a4 82 bd 2d a3 6f 3d 4b 09 78 bd
       0.07943738 -0.063790925 0.058505226 -0.060555737
000050 fe 6c 3f bd 3a a4 d6 3d 26 5f a2 3d e3 f6 9c 3c
       -0.046734802 0.104805425 0.079283044 0.019160694
000060 f8 26 c8 3d 80 5d 11 3c 71 1e 22 bd 9c 69 65 bb
       0.09773058 0.00887239 -0.039579812 -0.0035005575
000070 53 9f 2d 3d 6b 6d 68 bd 1a 71 4a bd c2 62 4d bd
       0.04238827 -0.056744974 -0.04942427 -0.05014301
000080 d9 e0 b8 bc d7 f7 83 3c 0a da 64 bd 14 43 af 3d
       -0.022568153 0.01610939 -0.055872 0.08557716
000090 f8 96 71 bd 4e ab 38 3d 86 f4 87 3d 09 29 94 bd
       -0.058981866 0.045085244 0.06638436 -0.07234389
0000a0 83 1e 3f bb e8 df 02 3c 96 e3 90 3d 78 0e 32 bd
       -0.0029162474 0.007987954 0.070746586 -0.04347083
0000b0 56 e3 1e 3d 36 ef 63 bd b9 03 79 bd 4e 4c 93 3d
       0.038791023 -0.05564805 -0.060794566 0.07192288
0000c0 15 2b 37 3d 28 4f 51 3b 1b 29 b2 bc f2 eb ec 3c
       0.04471882 0.003193805 -0.021748116 0.028921101
0000d0 cd c4 12 bc e1 b4 cf bc 8b 2a 0e bc 88 b5 b3 3c
       -0.008958054 -0.025354804 -0.008677135 0.021937147
0000e0 8a bb b3 bb 27 93 b0 3d 0d f6 4a 3d 23 9c 11 3c
       -0.005485003 0.08621817 0.04955106 0.008887324
0000f0 f3 cf 28 3d 33 ae e3 bc 2d 9f 07 3d ac 1b 82 3d
       0.04121394 -0.027793026 0.033110786 0.06352934
000100 de 67 4c bd 0c db 44 3d bd 1e 0a bd e7 a8 76 3d
       -0.049903743 0.048060462 -0.03372072 0.06021967
000110 18 70 38 3c a7 4d 91 3c c7 82 77 bd f8 b7 e2 b7
       0.011257194 0.017737223 -0.060427453 -2.7026967e-05
000120 08 9c 19 bc ba d9 85 bc 44 93 17 bd af fa b4 3d
       -0.00937558 -0.016339172 -0.037005678 0.088368766
000130 26 03 2e 3d 7a 1e 97 bd 9e 99 92 bc 80 25 68 bd
       0.04248347 -0.0737886 -0.017895516 -0.056676388
000140 f5 eb c9 3d d8 be 57 bd a8 15 a5 3d 1c 3e 56 bd
       0.09859458 -0.052672237 0.08060771 -0.052305326
000150 73 1e b8 3d 1a 2a 99 3d 5d d5 43 bd 72 37 13 bd
       0.08990183 0.07478733 -0.0478109 -0.03594155
000160 d3 a7 2b 3d 3b fa 44 3d b2 0e 40 bd 97 ef 1e 3b
       0.041908097 0.0480902 -0.046889015 0.0024251693
000170 36 c2 87 3d b7 62 0f 3e c6 44 c3 3d 49 1f 5c bd
       0.0662884 0.140025 0.09534602 -0.053740773
000180 60 3f ce 3c b2 0b d3 3d 65 d1 39 bd 66 71 41 bd
       0.025176704 0.10304965 -0.04536571 -0.047227286
000190 93 c9 0e 3d 44 4c c5 3d 2b 43 6e bd 7f a7 cc 3d
       0.034860205 0.09633687 -0.058169525 0.09992885
0001a0 a7 a0 c5 bb f6 ec a5 3d b9 f5 12 bd cf 25 26 bd
       -0.006031114 0.08101837 -0.03587887 -0.0405634
0001b0 36 93 a7 3d 42 ba 93 3d 43 0c ab 3c 70 ca ff 3d
       0.08182375 0.0721326 0.02087987 0.12489784
0001c0 5c 5f a9 3d 9b 32 42 3d 53 70 d9 3d 7f 7b 2a 3c
       0.082701415 0.047411542 0.10617127 0.01040542
0001d0 93 38 51 3c 8c 7e 81 3d 3f ba a6 3d 1f 23 da 3d
       0.012769836 0.06322965 0.081409924 0.1065123
0001e0 68 01 5b 3d 04 ad df 3b ff 23 dd 3c a8 5b 85 3c
       0.053468138 0.006826045 0.026994703 0.016279057
0001f0 56 cb 6e 3d ed 61 85 3d b9 ff de 3d ad 3d cf 3d
       0.058299385 0.065128185 0.10888619 0.101191856
000200 52 0d 7a bc 5e 58 94 3b ec 97 06 bc d8 38 18 3d
       -0.015261965 0.0045271358 -0.008214932 0.037163585
000210 e9 40 24 bd db 64 f3 3d 00 c0 1e bb 59 c3 81 bd
       -0.040100966 0.11884471 -0.0024223328 -0.06336088
000220 c5 14 92 bd 3d 29 e2 3d ab d8 2c bc f3 87 c8 bb
       -0.07132868 0.11043022 -0.010549705 -0.006119722
000230 5b 13 e7 bc b0 ab cc 3d 50 f6 cc 39 95 d0 71 bc
       -0.028207472 0.09993684 0.0003909343 -0.0147592025
000240 d5 bf b0 3d 07 bb 36 3d b5 ca 5d 3d b6 13 9f 3d
       0.08630339 0.044611957 0.054148395 0.077674314
000250 a2 a8 32 3c 4c d4 d4 3d 7d 03 bb 3d 3c ec b5 3d
       0.010904463 0.10392055 0.09131525 0.08882949
000260 50 b4 8d 3d 40 a0 81 3d 7e 40 a1 3c 47 2d a5 3d
       0.069191575 0.063293934 0.019684073 0.080652766
000270 ef 30 99 3d f2 26 49 3d 34 87 da 3d 2f c6 a6 bc
       0.074800365 0.049109407 0.10670319 -0.020358173
000280 d6 1f 16 3d 40 6f 3c bd 29 1e 0f bd e1 5a 87 bb
       0.036651455 -0.046004534 -0.034940872 -0.0041307067
000290 d6 b1 17 bd 37 6e 16 bd 73 49 79 3c d5 42 fd 3d
       -0.037034832 -0.036726203 0.015215266 0.12366263
0002a0 41 49 46 3b a5 e3 bb 3d 26 5e 30 3d 2a 5d bd 3d
       0.0030256065 0.09174279 0.043058537 0.09246285
0002b0 60 44 97 3c 71 37 f6 bc 48 6f 44 bd 03 82 fd 3d
       0.01846522 -0.030055733 -0.04795769 0.123783134
0002c0 3a 51 f6 bb ea 8e 69 bd 3a cf ba 3d 93 ec 24 3d
       -0.007517007 -0.05702106 0.091215566 0.040264677
0002d0 3f 09 e8 bc bf 9f af 3d ad fc 81 bc 6d 6a 98 3d
       -0.028324721 0.08575391 -0.015867556 0.07442174
0002e0 37 11 11 3d 69 1b 77 bd d7 ad 51 bd 53 6c fd bc
       0.035416808 -0.060328875 -0.051191177 -0.030935442
0002f0 80 66 4d 3d df fc bb 3d 93 08 8f 3d 58 d8 ce 3d
       0.05014658 0.09179091 0.06984057 0.10099858
000300 82 83 bb 3d d2 d2 d1 3d fb 1c 9f 3d fc 5f 51 bd
       0.091559425 0.10245289 0.077691995 -0.05111693
000310 90 72 91 3b 4d 9d ce 3c 91 e0 5a bd f2 f7 9e bd
       0.0044387057 0.025221491 -0.05343682 -0.077621356
000320 3b b3 aa 3d 62 c0 04 3d ec dc 8d 3d 9f ba 58 3d
       0.08334967 0.032410033 0.06926903 0.05291235
000330 66 10 c9 3d b4 57 bf 3d c1 a2 1e bc c0 16 71 3c
       0.09817581 0.093429 -0.009682358 0.014714897
000340 22 0e 8f 3d 6b d2 2e 3d 26 c5 4b bc fd e2 65 3b
       0.069851175 0.04268114 -0.012437141 0.0035077923
000350 f9 68 60 3c 62 36 b3 3c 68 49 bc bc bd 94 cf 3c
       0.013696902 0.021876518 -0.022984222 0.025339479
000360 a8 79 82 bd f8 67 39 bc ee b4 43 3d fb fe 54 3c
       -0.0637086 -0.011316292 0.04777997 0.013000245
000370 88 39 7c ba d4 29 4c 3d 84 ce 8f 3c 8d 74 c1 3d
       -0.000962161 0.049844578 0.017554529 0.094460584
000380 02 1d 44 3b 6e ce 05 bd d8 01 9a 3d 4b 39 87 3d
       0.0029924517 -0.03266757 0.07519883 0.06602725
000390 10 35 9a bb 62 dd 5e bc 5b 81 cb 3d 73 03 4b bd
       -0.0047060326 -0.013602586 0.09936782 -0.049563836
0003a0 39 5c a1 bd e1 77 70 bd 88 5b 0d 3d 4a 19 80 3d
       -0.07878918 -0.058708075 0.03451112 0.062548235
0003b0 de 4b 56 3d 8b 67 b8 3d de 5a 12 bd 52 f2 c1 3d
       0.052318446 0.09004124 -0.03573119 0.09470047
0003c0 75 82 57 3d 6a e1 c6 3d 17 48 17 3d 13 2d 0c 3c
       0.052614648 0.09710963 0.036933985 0.008555668
0003d0 0e 1e 78 3c 77 c2 9f 38 07 a2 98 3d ec ef bc 3d
       0.015143884 7.617933e-05 0.07452779 0.09225449
0003e0 2d 96 23 3d f8 67 f0 3c b1 8b 23 3d 65 cf de 3d
       0.03993814 0.029346451 0.039928142 0.10879401
0003f0 03 24 1e 3d 96 0d f0 3d 07 9d 61 bd fe ad a8 bb
       0.038608562 0.11721341 -0.055081394 -0.0051476946

lstm.weight_hh_l0 f4 [512, 128]
000000 b9 f6 96 bc 5a 0d b8 3c 92 1e cc 3b 88 6c f2 3c
       -0.018428193 0.022467304 0.00622923 0.029592767
000010 1e 5f 72 bc a2 81 22 3d c6 d5 1f 3d f7 35 6d bd
       -0.0147931855 0.03967441 0.03902223 -0.057912793
000020 57 75 cd bc 1d e0 8e 3d a4 c3 3f bd 36 2e 8e 3d
       -0.025080366 0.0697634 -0.046817437 0.06942408
000030 83 db b0 3d f1 e2 08 bd 7a 1e 10 bd cc e3 4a 3d
       0.086356185 -0.033419553 -0.035185315 0.04953365
000040 05 09 ef 3c 56 35 25 3d e1 0d 7c 3c df b5 81 3d
       0.029179106 0.04033407 0.015384168 0.06333517
000050 fa 9c ad 3c b5 86 54 3d 59 1b 76 bc ea 7a 18 3d
       0.021193016 0.05188628 -0.015021169 0.037226595
000060 e7 f4 4e bd a5 7d 02 bd 46 f7 a8 3d ba 1b 93 bd
       -0.050526526 -0.031858105 0.08250289 -0.07183023
000070 c9 4c 1c 3c e6 b7 4b bd a7 b9 87 bd 68 b6 10 3d
       0.009539791 -0.049735926 -0.06627207 0.035330206
000080 ee 8c 92 bd e4 c6 4b 3d ec 3a 76 3d e8 bf 8a 3d
       -0.071557865 0.049750224 0.060114786 0.067748845
000090 17 95 0f bd ef 1a 70 3d c9 7c b0 3d ac fe 13 bd
       -0.035054293 0.058619436 0.08617551 -0.036131546
0000a0 74 49 aa 3d 40 01 81 3d 41 c6 9c 3c 54 de 48 bd
       0.08314791 0.062990665 0.019137504 -0.049040154
0000b0 77 e6 a8 3d 85 ca 44 3d e5 29 af bd ea ba 25 bd
       0.08247083 0.0480447 -0.085529126 -0.04046146
0000c0 36 2c b3 3d 6c 41 ae bd a6 95 a5 bd ff 27 e7 3c
       0.08748667 -0.08508572 -0.08085184 0.028217314
0000d0 9f 2e 98 3c 8f 82 18 bd f5 12 1c 3d df 0b 1b bd
       0.018576918 -0.037233885 0.038104016 -0.037853118
0000e0 c9 ea 2c 3c 46 ba f9 3c f9 17 80 3d 6b fb 83 bd
       0.010554024 0.03048433 0.062545724 -0.064444385
0000f0 75 a5 25 3c 39 e4 56 3d 2d 8e 0a bd 75 e7 37 bd
       0.010110249 0.052463744 -0.033826996 -0.04489847
000100 ba e1 58 3d 0c c9 92 bc 5e 61 cd bb bb 5d 47 bc
       0.052949645 -0.017918132 -0.0062677106 -0.012168343
000110 70 1a b4 3d 8e 25 1e bd 88 8b cc 3c 3c 39 b3 3d
       0.08794105 -0.038610034 0.024968877 0.08751151
000120 56 05 5b 3d 0c 55 5e bd 73 74 2f 3d a2 a7 f3 3c
       0.053471886 -0.054280326 0.042835664 0.02974302
000130 be cb 7f bb 8d 7f 1f bd d5 ea cd bc 79 0f 99 3d
       -0.0039031352 -0.03894 -0.02513639 0.07473654
000140 53 8f 2e 3d cf fb 74 bd a4 c1 5e bd 21 b3 8b bd
       0.042617153 -0.059810456 -0.05438389 -0.068212755
000150 25 f4 10 3d d7 db 60 3d a9 7b 38 3b e1 8c ea bc
       0.035389084 0.054897156 0.002814988 -0.02863163
000160 a9 50 77 bc 6b 94 9d 3c 85 66 c8 3c 82 e1 05 bd
       -0.0150949145 0.01923581 0.024462948 -0.032685764
000170 cc 38 9b bd f7 b9 83 3c 10 24 5f 3c c9 68 37 3d
       -0.075791925 0.016079886 0.013619438 0.044777665
000180 50 a9 75 3d c6 0e 85 bd b6 43 8d bd ae ae 93 3d
       0.059975922 -0.064969584 -0.068976805 0.07211052
000190 47 3e 92 bc b3 9a 80 3d de 8d eb 3c 59 1a d1 bc
       -0.017851962 0.062795065 0.028754171 -0.025525259
0001a0 b6 c1 03 3d 2b ad 90 bc c8 7b 25 bd 00 ef aa bd
       0.03216716 -0.017660698 -0.04040125 -0.08346367
0001b0 59 61 1c bd 51 2d 36 bd 84 c3 92 3d 57 5c 7d 3d
       -0.038178775 -0.04447681 0.07166198 0.06185564
0001c0 03 e2 06 3d d4 17 d9 3c 71 c8 76 3d d7 a5 41 bb
       0.032930385 0.02650062 0.06024975 -0.002954831
0001d0 8e 54 4a bd d1 a9 70 3c 95 c4 a7 3c 9c 70 45 bd
       -0.049397044 0.014688925 0.02047948 -0.048203096
0001e0 40 bb a4 bd 4f 83 29 3d 3d 04 42 bb 46 6b aa bd
       -0.080435276 0.04138499 -0.0029604577 -0.08321242
0001f0 ee 65 f5 bb 1a 3f 2a bd 4f b0 3a bd 23 ea 55 3d
       -0.0074889576 -0.041564085 -0.045578297 0.052225243
000200 98 18 0b 3d 28 4b ac bd ce dc 8e bd 67 ca 38 3d
       0.033959 -0.084127724 -0.06975709 0.0451149
000210 b3 79 af 3b 8e 7f 24 3d e8 9b cc bb bb a8 ab bd
       0.005355084 0.040160708 -0.0062441714 -0.08381792
000220 a0 07 61 3d 0b 27 97 bd ba 01 6f bc 78 7f 2c 3d
       0.054938912 -0.07380494 -0.014587814 0.04211375
000230 59 64 10 3d 14 23 85 3c 6c 85 a0 bd e3 8c 7b 3d
       0.03525195 0.016252078 -0.07837948 0.061413657
000240 87 ec 61 3d e8 c1 d6 3b 9a d2 b1 bd 7c 2e dc bb
       0.05515721 0.006553877 -0.08682747 -0.0067194086
000250 b6 9f 32 bd f1 99 6d bc e2 64 5b 3d 1f e1 4f 3c
       -0.043609343 -0.0145020345 0.053563006 0.01268795
000260 76 f0 e3 bc 25 ae 07 bc 89 0b 93 bd 52 c9 b6 bb
       -0.027824622 -0.008281265 -0.071799345 -0.0055781985
000270 f8 de 72 3c 36 bf a6 bd 42 07 8f 3d e8 6d 10 3d
       0.014823668 -0.08141939 0.06983806 0.035261065
000280 34 44 aa 3c 9e 6f a1 3d 8f a2 b7 bc 5f e4 57 3d
       0.020784475 0.078826174 -0.022416381 0.052708026
000290 ad 43 9c bd 5d 17 27 3c 7b 68 38 bd 38 68 16 3d
       -0.07630096 0.010198441 -0.045021515 0.036720484
0002a0 ab b9 96 3c 88 98 8b bd 78 50 86 bd 8b bd 49 3d
       0.01839908 -0.068162024 -0.06558317 0.049253028
0002b0 a2 29 69 bd 49 33 5d 3d 10 c3 a4 3d 55 67 d1 bc
       -0.05692447 0.054003987 0.08045018 -0.025561968
0002c0 ef 89 8b bd 7b 6f 4c 3d 54 4d 1c 3d 21 6d 93 3d
       -0.06813418 0.049911004 0.038159683 0.07198549
0002d0 64 47 be 3c bd a7 70 3d 8a e2 11 3d 04 fa 89 bb
       0.023227401 0.058753718 0.035616435 -0.0042107124
0002e0 8f e8 b0 bd 9a 2c 55 3d 69 81 22 3d bb 39 a3 bd
       -0.08638107 0.05204449 0.039674196 -0.079699956
0002f0 ae 8b 34 3b f7 fc 09 bd 81 9a a6 3d fb 78 9b 3d
       0.0027549076 -0.03368851 0.08134938 0.075914346
000300 93 c1 30 bc 8d dd 1f bd 7c 87 81 bc 88 30 77 bc
       -0.010788339 -0.039029647 -0.015811674 -0.015087254
000310 6f ef 8c bd c3 9e f9 3c 56 de 6f 3d fe ba 75 bd
       -0.06881606 0.030471211 0.058561645 -0.059992783
000320 89 d6 e4 3c 4b 6c cb 3b e1 67 78 3b bd ab f8 bc
       0.02793433 0.006207978 0.0037903714 -0.030355329
000330 15 93 c5 3c fd c1 1e 3d b0 bf 4d 3d 5a 6f da 3c
       0.024117986 0.03875922 0.050231636 0.026664425
000340 d1 ed 9a 3c 76 5b 98 bd 40 d9 ac bd df 70 8e 3d
       0.018912228 -0.0743932 -0.08439875 0.06955122
000350 39 73 b4 bd 11 f3 18 bd f2 85 9d ba 76 91 29 bb
       -0.088110395 -0.03734118 -0.0012018068 -0.0025874055
000360 85 3a a5 bd bd f5 84 bd 23 57 18 3d f5 6a c4 bc
       -0.08067802 -0.06492183 0.037192475 -0.023976782
000370 4f 98 43 bc 85 76 13 3d 13 d3 a8 bc 95 a3 a6 3d
       -0.011938169 0.0360017 -0.02060846 0.081366695
000380 81 b2 5a 3d 9d bd a1 bd 18 99 a1 3d e6 ca 08 bd
       0.05339289 -0.07897494 0.078905284 -0.033396624
000390 ca 80 9a 3d 2e 5d 2d bd d5 03 b4 bd a5 45 5c 3d
       0.07544096 -0.04232519 -0.087897934 0.053777356
0003a0 6b 36 a0 3d cc 23 b5 3c ea b7 d2 3c 0e e3 aa 3d
       0.078228794 0.022111796 0.025722463 0.083440885
0003b0 df 59 d6 3b 6c 83 9a bd 13 ec 22 bc 07 54 6d 3b
       0.006541475 -0.07544598 -0.00994398 0.0036213414
0003c0 34 1b f4 bc 8f de 57 3d ea c5 d4 bc 4a a4 40 3d
       -0.029798128 0.052702483 -0.025973279 0.04703168
0003d0 88 cd 8a ba 30 3d aa bd 4c 03 f7 bc 18 46 a3 3d
       -0.0010589818 -0.08312452 -0.03015294 0.07972354
0003e0 cf d6 78 bc f8 f1 14 bd e6 4c d2 bc 8f ae 26 bd
       -0.015187933 -0.036363572 -0.025671434 -0.040693816
0003f0 c2 7b 43 3c 8b 18 1b 3d 45 45 fd 3b fd 20 83 bd
       0.011931362 0.037865203 0.007729205 -0.064027764

lstm.bias_ih_l0 f4 [512]
000000 1c dc 20 bd 42 59 8c 3d 6b 09 d3 3d 30 12 46 3d
       -0.039272413 0.06852962 0.10304531 0.04835719
000010 23 da 18 bd 10 29 09 3d 46 97 88 3d 37 e8 5f 3d
       -0.037317406 0.033486426 0.06669478 0.054664817
000020 ec 22 fb 3d 50 ef 61 3d 22 aa d2 3d 04 82 bd 3d
       0.1226252 0.055159867 0.102863565 0.09253314
000030 37 6a d7 3d 66 bd bf 3d 81 7c 76 3d 3d 86 d4 3d
       0.10518306 0.09362297 0.06017733 0.103771664
000040 dc 80 59 3d 20 26 aa 3c 79 80 b7 3d 1e fa 81 bc
       0.053101406 0.020770133 0.08960051 -0.015866335
000050 82 d5 56 bd 20 04 e1 3d 87 84 7f 3d 71 14 d3 bc
       -0.05244971 0.10987115 0.062382247 -0.025766583
000060 41 1f 07 3e e4 ba 37 3d e9 31 19 3d 64 35 07 3e
       0.13195516 0.044855967 0.037401114 0.1320396
000070 45 fd f8 3b 16 fa e5 3d a1 de b6 3d 79 db ca 3c
       0.0075985515 0.11229341 0.08929182 0.024762856
000080 4b 4c 01 bd 59 f1 03 bd cf c8 ec 3d 44 9b c3 3b
       -0.0315669 -0.03221259 0.11561739 0.005969437
000090 12 14 28 3d 6b f3 23 bd e0 76 c8 3d 6e bb 0f 3e
       0.041034766 -0.040027063 0.097882986 0.14036343
0000a0 f2 c1 4c 3d 47 a6 1c 3d 19 f7 a1 3d 0b 48 0e 3d
       0.04998965 0.038244512 0.07908458 0.034736674
0000b0 87 4d 6e 3a 29 9d 89 3d 0f 61 e5 3d cc 46 db 3d
       0.0009090532 0.06719429 0.11200153 0.10706863
0000c0 df 8a 23 3d 8e b4 15 bd 31 c0 17 3d 6c 3d 85 3d
       0.03992736 -0.036549143 0.037048522 0.06505856
0000d0 81 50 37 3d 6f ba 01 bd 70 93 29 3d a0 e8 24 3e
       0.04475451 -0.031671938 0.041400373 0.16104364
0000e0 e9 39 f2 3d 62 3e 5e bc eb 63 d5 3d 76 f5 1e bc
       0.11827452 -0.013564678 0.104194485 -0.009702077
0000f0 b8 4a da 3c 28 6f d7 3d 22 67 af 3d 31 d1 54 bc
       0.026646957 0.10519248 0.08564593 -0.012989328
000100 5a 2b 28 3d 5d 30 d6 3d 71 d3 20 3d f3 21 11 3e
       0.04105697 0.10458443 0.039264146 0.14173107
000110 62 35 03 bd 09 a8 c2 3d 73 28 44 3d c6 fc 34 3d
       -0.03203333 0.095047064 0.047890138 0.044186376
000120 53 86 1b bd 67 fb 17 3c 15 8a c2 bd 5c 5b e5 3d
       -0.0379699 0.009276248 -0.09498993 0.11199066
000130 a1 c3 b3 3b 3c 60 b5 3d d9 79 c4 3d 79 f2 dc 3d
       0.0054859673 0.08856246 0.09593553 0.107884355
000140 31 2e 14 3d 2a 25 0b 3d 2f 0c 45 3d b9 3f 9f bb
       0.036176864 0.03397099 0.048107322 -0.0048598913
000150 68 76 18 3d 08 b4 c8 3d 0b 11 04 3e b1 56 8b 3d
       0.037222296 0.09799963 0.12897126 0.068036444
000160 85 38 d5 bc 33 a7 a7 3d 22 1b d4 3c 3a da d9 3d
       -0.026027927 0.081861876 0.025891844 0.106373265
000170 07 fa 8b 3d 04 62 16 3d be e4 3e 3d f5 b3 bc bc
       0.06834798 0.03671457 0.046604864 -0.023035029
000180 ee 48 e9 3d 21 f2 2c bd 25 17 b6 3d 95 d8 17 3d
       0.11390863 -0.0422231 0.08891133 0.037071783
000190 38 99 ac 3d 4c e6 45 3d c1 b7 c5 3d 73 49 a0 3d
       0.08427662 0.04831533 0.09654189 0.07826509
0001a0 06 a6 25 3c 12 38 60 3d 51 c9 35 3d 86 c7 25 3d
       0.010110384 0.054740973 0.044381443 0.040473484
0001b0 f5 1e ab bb b4 1a ae 3d 03 e8 ee 3d 30 09 03 bd
       -0.005222196 0.08501187 0.116653465 -0.031991184
0001c0 03 fd 11 bd 24 3f 09 3c cc fa b0 3c 47 bd a5 3d
       -0.03564168 0.00837687 0.021603964 0.080927424
0001d0 26 e7 4d bb 6f 24 e9 3d e3 32 e6 3d 97 65 69 bd
       -0.0031418293 0.11383902 0.112401746 -0.05698165
0001e0 45 ce 58 3d 76 fa 95 bc 86 1d a4 bb a7 8b a7 3d
       0.05293109 -0.018307906 -0.0050084023 0.081809334
0001f0 81 c0 08 bd 9e 47 ba 3d f4 4a b1 3d 54 de 0e bd
       -0.03338671 0.09095691 0.08656874 -0.034879997
000200 f6 90 90 3d 67 d0 9b 3c 36 2e 73 3d 65 16 0b 3d
       0.07058899 0.019020272 0.059370242 0.033956904
000210 07 bc 19 3d 32 19 10 bd 7e 0d a3 bd 7a ec 1d bb
       0.037532832 -0.035180278 -0.07961558 -0.002409725
000220 91 3b 95 3c 4e e1 04 3d af 0b f5 3c 41 77 a1 3d
       0.01821688 0.03244143 0.029912798 0.07884074
000230 40 ea b2 3d ec 35 45 3d fa 81 52 bd 91 78 b0 3d
       0.08736086 0.048147127 -0.051393487 0.08616746
000240 0b 48 d5 3b bf 78 12 3d 6b 66 29 bc 84 95 3c 3d
       0.0065088323 0.035759684 -0.01033936 0.046041027
000250 63 28 af 3d 9d fa f6 3c 7e 91 a1 bd 8b 77 05 bd
       0.08552625 0.030148799 -0.078890786 -0.03258471
000260 60 f3 ec 3c 3f ee fd 3c ff ce a9 bd c9 2e 92 3c
       0.028924644 0.030997394 -0.082914345 0.017844575
000270 64 08 88 3d 82 49 9c 3d cf 9a 1a bd 0a 1c 31 bb
       0.066422254 0.07631208 -0.037745293 -0.002702477
000280 48 55 9d bd 32 12 a3 3d c2 50 8c 3c 94 32 94 3b
       -0.07682282 0.07962455 0.017128352 0.004522631
000290 e2 5e 4a bb 6d 56 6f 3d 90 ae 95 bd 47 35 4e 3d
       -0.0030879308 0.05843203 -0.07308686 0.050343778
0002a0 7c cc 40 bd 06 6c 9b bd 2f 7f 32 bc 1d d8 1d bd
       -0.04707001 -0.07588963 -0.010894581 -0.03853618
0002b0 fa c0 3f 3d b8 7b 55 bd 22 3f ac 3c 21 09 98 3d
       0.046814896 -0.05211994 0.021026198 0.07423616
0002c0 1b 1a 48 bd 04 ff 5c bd 6c ad 9f bd d7 e0 65 3d
       -0.04885302 -0.05395414 -0.077967495 0.056122627
0002d0 b4 bb 8b bd 2a 92 28 bd 4e e3 1b bd d2 96 81 3d
       -0.06822911 -0.041155018 -0.03805857 0.06327595
0002e0 3d 00 23 bd c7 04 62 bd 37 66 ae 3d 8f 6f 96 3d
       -0.03979515 -0.055180337 0.0851559 0.07345497
0002f0 7d 5f 68 3d b2 96 71 3c 48 31 4b 3d d4 65 da 3c
       0.05673169 0.014745401 0.049607545 0.026659884
000300 6b 8e 1b bd 25 6d 7b 3d d9 8f 10 ba 65 17 45 bd
       -0.037977617 0.061383385 -0.0005514599 -0.048118014
000310 d1 56 87 39 a2 7a 25 bd f7 c7 a7 bd 05 a9 42 bd
       0.0002581389 -0.040400155 -0.08192437 -0.04752447
000320 a7 27 24 3d f9 ff 8d 3d 36 d9 aa 3d e8 96 14 bd
       0.040076878 0.069335885 0.08342211 -0.036276728
000330 9b f9 2d 3d c6 5e 85 bd 8e 19 f2 bb af eb 51 bd
       0.04247437 -0.06512217 -0.0073883003 -0.051250156
000340 2c 36 0d 3d e0 66 3f bd 63 32 9f bc 71 3f a0 3d
       0.03447549 -0.04672897 -0.019433206 0.078246005
000350 7e df 61 bd 2d 20 b9 bc 91 4c 78 bd 53 6e e0 3c
       -0.05514478 -0.02259835 -0.060619894 0.027396357
000360 97 ee 96 bd f9 5f 30 bd 9b 57 ae bb 67 03 6c 3c
       -0.07369726 -0.043060277 -0.005320502 0.014405108
000370 c5 a4 50 3c 83 69 8c bd 98 23 51 3d 94 c0 65 bd
       0.012734597 -0.06856062 0.051059335 -0.05609186
000380 55 fa 71 3d 49 73 3a 3d 9f 4a 89 3d d4 26 7a bd
       0.059076626 0.0455201 0.06703686 -0.061072186
000390 33 f5 1a 3d 18 3b a5 3d 2d fe 56 bd 5d 6a 8a 3d
       0.037831496 0.08067912 -0.052488495 0.067585684
0003a0 6e 54 9d bd ec 58 a8 3d ae e3 69 bd ac 33 8a 3d
       -0.07682119 0.082200855 -0.057101898 0.06748137
0003b0 02 af 8f 3c 92 8a 59 bd b3 81 95 bc 83 39 cb 3c
       0.017539505 -0.053110667 -0.018250322 0.024807697
0003c0 e3 12 ad 3d 71 16 15 3b dc 5f 90 3d 7a c3 cd 3b
       0.08450868 0.0022748972 0.07049534 0.006279406
0003d0 d7 b8 31 bb e3 0f ad bc a1 de 2a 3d 69 4f 6b bd
       -0.002711823 -0.02112574 0.04171622 -0.05744878
0003e0 aa 18 97 bd db 4a 11 bd 05 2d a9 bd b6 68 9f 3d
       -0.07377751 -0.03547178 -0.0826054 0.07783644
0003f0 37 c2 47 3d 8f a0 93 bd a0 7f e9 bc 60 f6 bf bc
       0.048769202 -0.072083585 -0.02850324 -0.02343291

lstm.bias_hh_l0 f4 [512]
000000 df b4 06 bd a8 be c1 3d 6e e7 9b 3d 24 0a ae 3d
       -0.032887336 0.09460193 0.07612501 0.08498028
000010 84 df fa 3d 0b bc 94 3d cd f3 79 3d 1f 81 11 3e
       0.122496635 0.07262429 0.061023522 0.14209412
000020 af ff ad 3b 06 92 d0 3d 09 03 b6 3d 50 92 a9 bc
       0.005310021 0.10184102 0.08887298 -0.02069965
000030 40 93 b1 3d ec b6 79 3d 02 f2 ed bc d7 0a 9d bc
       0.08670664 0.060965464 -0.029046062 -0.019170208
000040 dd c0 ba 3d 00 da 24 bd 0b 89 ce bb 6f fe 19 3d
       0.09118817 -0.040246964 -0.006302958 0.037596162
000050 60 24 85 3d 67 fb 35 3d be a1 3f 3c f5 02 1e 3d
       0.065010786 0.04442921 0.011696277 0.03857704
000060 20 50 a0 3c fe e2 03 3e 37 cf ec bc b6 2a 89 bc
       0.019569457 0.1287956 -0.028907401 -0.016743999
000070 d1 ae e3 3d 6a c3 ab 3d 6b 1b bd 3c 35 40 13 bd
       0.11117328 0.08386882 0.023084363 -0.035949904
000080 2b bb 84 bc db 69 f6 3d 8e 73 88 3c 8c 11 3c 3d
       -0.01620253 0.12031909 0.016656663 0.04591517
000090 29 9d 28 bd 8c 63 20 ba 09 60 85 3d 13 1e 0b 3e
       -0.041165505 -0.0006118349 0.06512458 0.13585691
0000a0 17 85 60 bc f6 12 66 3d 56 dc 22 3d e6 61 f3 3d
       -0.013703606 0.056170426 0.03976091 0.11883907
0000b0 d7 36 af 3d 8b 5d c1 3d fb e7 5f 3d 94 cc 04 3d
       0.08555382 0.0944167 0.054664593 0.032421663
0000c0 3e 71 88 3d 47 88 cb 3c 8a ac ae 3c e9 0f 9d 3d
       0.06662224 0.024845256 0.021322507 0.0766905
0000d0 0c ac df bc 33 69 7c 3d 03 ce 8d 3d c0 0e 60 3d
       -0.027303718 0.061623763 0.06924059 0.054701567
0000e0 fa 90 07 3c 52 b8 cc 3d 82 65 af 3d 3a e6 87 bc
       0.008274311 0.09996094 0.08564283 -0.016589273
0000f0 a9 ea b5 3d 9e 81 ef bc 62 66 db 3d 9c d3 9a bd
       0.088826485 -0.029236611 0.10712887 -0.075598925
000100 3a 24 66 3c 88 45 b5 bc 40 6c 2f 3d fe 5e ac bc
       0.014046723 -0.022127882 0.042827845 -0.02104139
000110 83 18 f1 3d ea ae 03 3e 67 6c aa bc 7d cf ad 3d
       0.11772253 0.12859693 -0.020803643 0.08486841
000120 ed bb 02 bd 01 31 55 3d 97 dc 8e 3d 05 a0 8e ba
       -0.0319175 0.052048687 0.06975668 -0.001088143
000130 68 86 6b 3c b6 c5 05 3d 94 c7 7f 3d f9 21 8a 3d
       0.014375307 0.032659255 0.062446192 0.06744761
000140 09 f8 7b 3d 16 13 a9 3d 70 cc c6 3c f5 51 9e 3d
       0.06151584 0.082555935 0.024267405 0.07730476
000150 ae 84 e4 3c 3b 7e 92 3d a8 a0 cf 3d 38 8d 13 3d
       0.027895298 0.07152983 0.101380646 0.03602335
000160 ec a5 45 bd 7f ff 79 3d e3 d1 b6 3d 33 19 d4 3c
       -0.04825394 0.061034676 0.089267515 0.025890922
000170 fc 57 8e 3d b8 c3 30 3d ee af ea bc db d7 f9 3d
       0.069503754 0.043155402 -0.028648343 0.12199374
000180 44 fc 1d bd 91 e9 79 3d da 14 00 bd 15 bc f4 3c
       -0.038570657 0.061013762 -0.031269886 0.02987484
000190 23 7a fb 3d 0d 14 11 bd 92 e6 01 bd 35 92 70 3d
       0.12279155 -0.035419513 -0.03171403 0.058733184
0001a0 53 e7 00 bd 52 16 a5 3d a3 0e ee 3d fd 91 ed 3d
       -0.031470608 0.08060898 0.116238855 0.11600111
0001b0 9f 26 2b 3b 44 b4 9d bc 6f ac 2e bd cf e7 6f 3d
       0.002611555 -0.019250996 -0.042644914 0.05857068
0001c0 05 a2 b9 3c f0 01 f9 3d 63 c3 4b 3c 11 f1 d9 bc
       0.022660265 0.12158573 0.012436721 -0.026604207
0001d0 9a 34 49 3c 4e 51 4b bd 6b da fd 3d cc 7a ca 3d
       0.012280608 -0.049638085 0.123951755 0.09886703
0001e0 f0 d9 2c bd a4 fd b4 3d 5a c5 8c 3d bc 51 81 3d
       -0.04220003 0.088374406 0.06873579 0.06314418
0001f0 16 dd ae bd 5e 7c 88 3d 06 c3 e3 3d 8a d9 fc 3d
       -0.085382625 0.06664346 0.11121182 0.1234618
000200 e1 ed 73 3d c5 0d 32 3d 06 7f 4c bd e7 99 f5 bc
       0.05955303 0.043470163 -0.049925826 -0.029980613
000210 b5 e3 12 3d b7 3d a1 3d bb ee 62 3d ca ee c4 3c
       0.03586169 0.07873099 0.055403452 0.024039645
000220 a2 c7 01 3c 8f 7d 9a bd f4 f5 28 3d d3 cc 98 3d
       0.007921131 -0.0754348 0.041250184 0.07460942
000230 8b 24 8a bd a5 f6 29 bd d8 d2 a1 bc 10 ce 97 bd
       -0.06745251 -0.041494984 -0.019753858 -0.0741235
000240 0b 05 92 3d 23 5b 6a 3d f0 28 58 3b e7 cb d4 bc
       0.07129868 0.05721582 0.0032983385 -0.025976134
000250 fb 8c a5 3d 72 a8 5f bd 2d f1 70 bd 20 ca 3d bd
       0.080835305 -0.054604 -0.058823753 -0.04633534
000260 26 16 a6 3d 63 f0 80 3c 49 aa b2 3d 0e f6 5e bd
       0.08109693 0.015739625 0.087238856 -0.054433875
000270 9f e9 a2 bd 1a 00 9b 3d af ca a2 3c 29 e5 58 3d
       -0.07954716 0.07568379 0.019872038 0.05295292
000280 18 bb 6a 3d 03 97 20 bb f3 63 b2 bd 94 6a 08 bd
       0.057307333 -0.0024504072 -0.0871047 -0.033304766
000290 79 47 8c bd 7d d1 59 3d a7 de 0f bd 11 c4 33 3d
       -0.0684957 0.0531783 -0.035124447 0.043888155
0002a0 62 2e 82 3c cc 39 e9 bb 09 3b 69 3c 9d 01 0f 3d
       0.015891258 -0.0071174856 0.0142352665 0.034913648
0002b0 3c eb 39 3d 7a 66 22 bd 35 5f a2 3d 5a 3a 08 bd
       0.045390353 -0.03964851 0.079283156 -0.033258773
0002c0 38 a6 8b 3d 8b 0d 0b bd fa 22 ae 3d 81 d7 7a bc
       0.06818813 -0.033948462 0.08502765 -0.015310169
0002d0 a4 eb f0 3c 74 eb 14 bd ff bf 66 bd 4a cf 4b 3a
       0.029409237 -0.036357358 -0.056335445 0.0007774724
0002e0 1e 7e 9f 3d f3 ff 8b 3c a7 3b e9 3c 5e bd a6 3d
       0.07787727 0.01708982 0.028470827 0.08141588
0002f0 75 0e 75 3d 57 78 20 3c 3e ab 35 bd f0 2b d1 3c
       0.05982824 0.009794316 -0.044352762 0.025533646
000300 94 15 0f bd 2a 67 2c bd ca d8 a6 3d 2c 6c 64 bd
       -0.034932688 -0.042090572 0.08146818 -0.055767223
000310 ff 73 b4 bd e6 98 9b bd 66 f3 1c 3c 95 f2 e7 3b
       -0.08811187 -0.075975224 0.009579515 0.0070784786
000320 6d 4a 99 3d 81 cc d3 bb 13 72 6e 3d 92 ea a0 bd
       0.07484899 -0.0064635877 0.05821426 -0.07857241
000330 70 33 b4 bd c8 67 65 3c 92 cc 79 bd ae 0e ab 3c
       -0.087988734 0.014001794 -0.06098611 0.020881023
000340 0d 44 b0 bd 88 48 68 bd 4e e5 5e bd b4 98 e1 3c
       -0.0860673 -0.056709796 -0.0544179 0.027538635
000350 05 6e 6e 3d f5 d2 83 3d ee df 03 bc 94 22 a8 bd
       0.05821039 0.06436721 -0.0080489945 -0.0820972
000360 a0 96 8c 3d e7 69 5a 3d c4 80 90 bd e1 92 f0 bb
       0.06864667 0.053323653 -0.0705581 -0.007341728
000370 f1 12 47 bd ab 51 16 bd a5 b5 92 3c 3e 03 89 bd
       -0.04860205 -0.03669898 0.01790888 -0.066900715
000380 bd 44 38 bd 2e e0 45 bd c2 42 8a 3c 6a 51 85 3d
       -0.04498743 -0.048309498 0.016877536 0.06509669
000390 83 36 03 bd 05 a0 d4 3c ca 92 98 3c bc 3a a4 bd
       -0.03203441 0.02595521 0.018624682 -0.08019015
0003a0 b8 77 f9 3c 9a c1 a2 bd c4 4c b5 3c c1 32 83 bd
       0.030452594 -0.07947083 0.022131331 -0.06406165
0003b0 e3 05 9e bc 1e 41 1c bd 61 c0 15 3d cd ef 9f bc
       -0.019289916 -0.038148038 0.03656042 -0.019523526
0003c0 6f ac 39 3d 70 49 5b 3d d6 99 03 3c 54 83 8e 3c
       0.04533046 0.053536832 0.008032283 0.017396607
0003d0 e7 9b 8e 3c 9d 9e 93 bd 4c 69 19 bd 3d a2 ae bd
       0.017408324 -0.072079875 -0.037453935 -0.08527038
0003e0 49 8c 26 3d cd 4d 84 3d bf 13 78 3d 1f d5 29 bc
       0.04066113 0.06460152 0.060565706 -0.010365753
0003f0 f5 82 39 bd 50 7c 8c bd d2 bf 0c 3c 25 eb 8c 3d
       -0.045290906 -0.06859648 0.008590655 0.06880788

lstm.weight_ih_l1 f4 [512, 128]
000000 a9 a6 15 3e 2a 81 30 be da df 18 3d d5 8b 92 3c
       0.14614357 -0.17236772 0.037322856 0.017888943
000010 c6 3b cd bd e0 79 d1 bd 67 aa 11 be 63 f2 6a 3e
       -0.100211665 -0.10228324 -0.1422516 0.22944026
000020 dd 23 10 be af 50 0e 3d d2 d1 fa bd f2 12 23 3b
       -0.14076181 0.034744915 -0.12247051 0.0024883118
000030 c9 a4 b7 3d 73 97 28 be aa 7b 3e 3d 76 79 a6 3c
       0.08966977 -0.16464023 0.046504654 0.020321589
000040 04 19 82 3c 7e a3 b9 bd de 2d f0 bd 63 35 dd 3d
       0.015881069 -0.09064387 -0.117274985 0.10801198
000050 11 28 b2 bd 1a 9d be bd 49 ff 5d bd 57 14 e5 3c
       -0.08699048 -0.093073085 -0.054198537 0.0279638
000060 04 67 b5 3c d0 af 69 3d 2a d0 3b bd 33 2f 94 bd
       0.022143848 0.057052433 -0.045852818 -0.07235565
000070 d7 8e cd bd fc e0 db 3d e1 cf a0 3d 93 e5 00 be
       -0.1003701 0.10736272 0.0785215 -0.12587576
000080 a7 17 44 be 6d 2a 59 3c 62 21 1f 3e 54 ce 85 bd
       -0.19149648 0.013254744 0.15540078 -0.065334946
000090 95 fe 1b 3b 4b bb 06 3e 0e 3e 6a 3c f3 11 20 3e
       0.0023802866 0.13157384 0.014297022 0.15631847
0000a0 41 99 fe 3d 5b be 12 be 26 70 da bd 31 53 1c bd
       0.124315746 -0.14330427 -0.10665922 -0.038165275
0000b0 ac 1b 27 bd 3f 9a 49 bc 1e 1c 0d bc 4a e0 8e bd
       -0.040797874 -0.012304842 -0.008612661 -0.069763735
0000c0 71 fa 1f bd d4 36 77 3c d7 c3 ca bd 1e 28 ad 3d
       -0.0390572 0.015088756 -0.09900635 0.08454917
0000d0 37 0d 32 be 83 7c 4f bd 42 59 15 bb 5c db 5b 3d
       -0.17387854 -0.050655853 -0.0022788798 0.053675994
0000e0 55 d5 ae 3d ce 03 a2 ba 95 70 01 be ec 52 87 3d
       0.085367836 -0.0012360753 -0.12640603 0.06607613
0000f0 eb 82 9a 3d 67 a8 51 be 99 f5 42 3d 95 f6 6f bc
       0.07544502 -0.20474397 0.0475975 -0.014646192
000100 70 51 a7 bd 7f 73 75 be a3 34 18 be cb 78 17 3e
       -0.0816983 -0.2396984 -0.1486383 0.14792173
000110 e3 dd 37 be f3 f0 db bd 05 88 71 3d b2 df 1a be
       -0.17955737 -0.10739317 0.05896761 -0.15124395
000120 49 90 5c bc d6 bf bf 3d d8 48 ee bd 08 d0 d2 3d
       -0.013462135 0.09362762 -0.116349876 0.10293585
000130 ba e7 c0 3c 52 85 77 3e 21 ff 12 be b6 31 e5 3d
       0.023547996 0.24171951 -0.14355136 0.11191122
000140 fb 9e 00 be 6e e1 1a bd c7 b9 be bc 03 eb 85 be
       -0.12560646 -0.037812643 -0.023281945 -0.26155862
000150 8d 95 61 bc 03 1b 9b bd 09 75 b8 3d b4 31 a4 bd
       -0.013768566 -0.075735115 0.09006698 -0.080172926
000160 9d bc 08 3e 19 a3 12 3d ec 14 18 3e 1f 87 00 be
       0.133532 0.035800073 0.14851731 -0.12551545
000170 d7 ae ce 3c a9 bb 70 3d c6 1c c3 3c 43 b3 eb 3d
       0.025229855 0.058772717 0.023817431 0.11508801
000180 e7 c8 00 be d5 1c 73 bd 4f eb 7b bd 13 b5 07 3e
       -0.12576638 -0.05935367 -0.061503705 0.13252668
000190 5b 84 e9 bc 22 61 7b 3d 09 43 10 3e 46 7f b9 3d
       -0.028505495 0.06137193 0.14088072 0.090574786
0001a0 2b 0b bf 3d 54 e4 da 3d ac f8 6a bd 6a 38 d4 3d
       0.09328302 0.106880814 -0.05736606 0.10362323
0001b0 f2 28 61 bd 1a 35 b7 3c 97 b9 40 3c 80 1a ce bc
       -0.05497069 0.022364188 0.011762998 -0.02515912
0001c0 b1 9e 29 bd 0d c5 1d 3e 46 cd 0d be 22 6d 5f 3d
       -0.041411106 0.154072 -0.13847837 0.054547437
0001d0 d6 c8 b9 3d 15 1f 5b bd f2 c8 ab 3d 6b 34 e0 bc
       0.090715095 -0.05349644 0.08387937 -0.027368745
0001e0 ac f9 e3 3d f1 a8 8a 3c 4a a1 4f 3e 83 50 36 3e
       0.111316055 0.01692626 0.2027637 0.1780415
0001f0 23 da d7 3d b9 69 ff 3d d6 0e 7b bd 5d 29 cd bd
       0.10539653 0.12471337 -0.061293446 -0.10017655
000200 17 cb 59 3d fe 20 30 be 41 97 35 3c e3 93 09 3e
       0.053172197 -0.17200086 0.011083425 0.1343532
000210 79 de 8f bd e7 7d 40 bd a9 d2 f9 bb 89 86 29 3e
       -0.07024855 -0.04699507 -0.0076239896 0.16555227
000220 58 bf e1 bd 71 89 36 3c 84 91 8b bd 36 ba cb 3c
       -0.11022824 0.011141167 -0.06814864 0.024869066
000230 cd 5a d5 3d 96 2e 07 be 89 4d 2b 3c 03 05 ff 3d
       0.104177095 -0.13201365 0.010455498 0.12452128
000240 70 9c e4 3d 48 8f 2c be e0 f4 89 bd 85 69 b2 3d
       0.111626506 -0.16851532 -0.06736159 0.087115325
000250 5a 4b 58 bd 4d 36 88 bc 3d 1b af bd f4 b8 0e 3e
       -0.052806236 -0.016627455 -0.08550117 0.13937742
000260 0f e5 03 be f3 70 fe 3d 9e c0 1b bd db 77 7d 3c
       -0.12880348 0.12423887 -0.03802549 0.01547047
000270 6b d1 43 bd 21 ca dd 3d 07 28 67 3d 17 8c 95 bd
       -0.04780714 0.10829569 0.056434657 -0.07302111
000280 fe 41 dc bd ef 51 db 3d ec 33 e6 3d c7 f8 f2 bd
       -0.107547745 0.10708987 0.11240372 -0.11863857
000290 45 eb a9 bd 2e de d8 3d 2f 80 02 3e c8 a5 7a 3e
       -0.08296827 0.105892524 0.1274421 0.24477303
0002a0 93 a7 26 3b 2a a5 18 be a3 34 06 be 5b 77 57 bd
       0.0025429472 -0.14906755 -0.13106017 -0.05260406
0002b0 d4 5a 0d be d8 74 35 bd f0 0a 1e 3e 45 95 7b bc
       -0.1380418 -0.044300884 0.1543386 -0.015355413
0002c0 34 b1 b4 bd 0d 4a f5 bd 20 21 4c bd 8c 95 0f 3e
       -0.08822861 -0.11977015 -0.049836278 0.14021891
0002d0 8e 94 df bd e2 ac 04 bc 0b 4c ee bd 50 69 60 3e
       -0.109170064 -0.008097859 -0.11635598 0.21915174
0002e0 00 2c 6f 3d d8 4e b2 ba d0 60 a8 bd 04 9e a5 3d
       0.05839157 -0.001360382 -0.082215905 0.0808678
0002f0 1b de c6 3d 6a 67 54 be 8e e6 e8 3b 8c 54 0f 3e
       0.09710332 -0.20742574 0.0071075624 0.13997096
000300 8d e3 b8 bd e1 19 49 be fb 50 87 bd 77 c3 af 3d
       -0.09027777 -0.19638778 -0.06607243 0.08582204
000310 fd a9 ce bd 47 08 b4 bd a3 25 97 3d 10 12 e0 bd
       -0.100910164 -0.08790641 0.073802255 -0.10940945
000320 29 54 1c be 30 e4 f3 3d 55 d0 5f 3c e3 ce 16 3d
       -0.1526648 0.11908758 0.01366051 0.036818396
000330 87 f1 ec bc ab 05 77 3e e1 0e d1 bd 9d 92 0d 3e
       -0.028923763 0.24123256 -0.10207916 0.1382546
000340 11 4b 34 bd c2 ed ac bd 69 c3 93 bc 59 2f 9f be
       -0.0440169 -0.08443786 -0.018037515 -0.3109081
000350 b9 f4 60 3d 7f f5 d6 bb cd e6 62 3d d2 f0 b8 bb
       0.054920886 -0.006560027 0.05539589 -0.0056439424
000360 e1 99 e5 3d 36 13 13 3e 3c dd 5d 3e 36 af b2 bd
       0.11210991 0.14362797 0.21666425 -0.08724825
000370 4f 5c fa 3c 7d c5 d0 3d da 35 2b 3d 90 84 ec 3b
       0.030561594 0.10193918 0.041799404 0.007217951
000380 0b 28 eb bd 10 72 91 bd 03 29 8a bd 2a ac aa 3b
       -0.11482247 -0.07101834 -0.067461036 0.005208512
000390 57 30 01 be b8 88 52 3d 36 66 56 3e e9 6d 15 3e
       -0.12616096 0.051399916 0.20937428 0.14592709
0003a0 16 61 88 3c b0 95 1b 3d 41 b9 45 be c5 4d 73 3e
       0.016647857 0.03798455 -0.1930895 0.23760135
0003b0 3a 5e 3b bb 8f 82 c0 bd 83 ca cb 3d 0f 45 86 bc
       -0.00285901 -0.09399902 0.099507354 -0.016390352
0003c0 35 d5 a9 bd 3c b0 8e 3d 17 26 f1 bd ff 9d 02 3e
       -0.08292619 0.06967208 -0.11774843 0.12755583
0003d0 5c 47 20 3e 6c 82 47 bd ca 42 70 3d 2d 0f 00 3e
       0.15652221 -0.048708364 0.058657445 0.12505789
0003e0 fe 92 f5 3c 0c 3f 16 be 96 a1 ed 3d 42 b7 d0 3d
       0.029977318 -0.14672488 0.11603086 0.10191204
0003f0 9f 1d ba 3d 42 b9 f6 3c 24 6c 14 be c0 41 98 bd
       0.09087681 0.030117635 -0.14494377 -0.07434416

lstm.weight_hh_l1 f4 [512, 128]
000000 c3 ff 4c 3d c2 93 36 b9 88 2d 1e 3b 0a d9 4a bd
       0.0500486 -0.00017411917 0.0024136025 -0.04952339
000010 58 ca 96 3d db 3a 3d bd 88 a1 85 3d 68 61 93 bc
       0.07362813 -0.046198707 0.0652495 -0.017990783
000020 07 a5 36 bd f1 c5 f9 3c d8 d7 88 bd 1c a3 61 3d
       -0.044590976 0.030489894 -0.06681794 0.055087194
000030 2a 37 88 3d ac de 31 bc e7 4c 85 bd bc 92 40 3c
       0.06651147 -0.010856312 -0.065088086 0.011753734
000040 06 29 9f bd ed 10 8c bd d0 73 ae 3d b4 62 ba 3c
       -0.077714965 -0.06839166 0.08518183 0.022752143
000050 6a f7 36 3c 47 cd 3a bb e7 66 87 bb 57 e4 a0 bd
       0.011167387 -0.0028503702 -0.00413214 -0.07856052
000060 d8 33 de bc 36 69 10 bd 60 2c 36 3d bc 74 b6 3b
       -0.02712433 -0.035256587 0.044475913 0.005568115
000070 aa 15 1a 3d 91 c1 ec bc df 58 c2 bc 84 81 e2 bc
       0.037618317 -0.028900893 -0.023724018 -0.027649648
000080 25 f7 e5 bc ba af 5b bd 16 53 4a 3d 21 ed 71 3d
       -0.02807195 -0.053634383 0.049395643 0.059064034
000090 d4 ec 54 3c 77 12 17 3d 15 b3 85 bd 28 e2 b2 bd
       0.012995917 0.036882844 -0.06528298 -0.08734542
0000a0 24 0a 99 3d 35 b8 9d bd e2 8c 1f 3d 7e fc 88 3d
       0.07472637 -0.0770115 0.038952716 0.06688784
0000b0 c5 c1 8c bd 6d 52 9c 3d 30 d8 c8 3c 8d 8e 9b 3d
       -0.06872896 0.07632909 0.024517149 0.07595549
0000c0 d3 bb 44 bd 9b ad 0f 3d 2c 92 74 3d 10 9f 40 3d
       -0.048030686 0.035077672 0.059709713 0.047026694
0000d0 b1 3b 82 bd e9 ae 22 bc 6e 4e 12 bd 3c ff 54 3d
       -0.063590415 -0.009929397 -0.035719328 0.052001223
0000e0 64 04 86 3d 81 71 65 bd 0b 97 8e bd 1e dc a8 3d
       0.06543806 -0.05601645 -0.06962403 0.08245109
0000f0 bc 54 19 3d cd 82 77 3d d1 10 8a 3d 5b bf a1 3d
       0.037434325 0.060427476 0.06741489 0.07897826
000100 35 9d 89 3d bd 14 28 3d 55 ea 5a bd 3c 8e 38 bd
       0.06719438 0.041035403 -0.053446133 -0.04505752
000110 ff 31 e5 bc 13 3d fd 3c af e5 18 3d 4d 29 82 bd
       -0.027977942 0.030912912 0.03732842 -0.06355534
000120 9c c1 4f 3d 8e a9 73 3c 3a 97 cf bc d4 fd 8f ba
       0.05072175 0.014871968 -0.025340665 -0.0010985681
000130 97 c5 db bc be 15 f4 bc 91 8f 28 bd 2c 55 5f bd
       -0.026827617 -0.029795524 -0.04115254 -0.054524586
000140 58 ed af bd 31 55 2f 3b 41 97 4c 3d 3d 7a 88 bd
       -0.085901916 0.002675366 0.049948934 -0.0666394
000150 9c 0c b0 bd 46 2e 82 3d d8 64 8e 3d cc ce 5f bd
       -0.08596155 0.06356482 0.06952828 -0.054640576
000160 b1 76 79 bd de 58 04 3d ab 17 4e bd 96 66 61 3d
       -0.06090421 0.032311313 -0.05031554 0.055029474
000170 06 dc b2 bd 7b a2 a2 3d 09 95 93 3d 66 c8 78 ba
       -0.087333724 0.07941147 0.072061606 -0.0009490311
000180 59 d1 5f 3c 93 12 11 3c 85 2a 71 bd 7d 51 c7 3c
       0.013660752 0.008854526 -0.05887844 0.024330849
000190 df 1b 4b bd ce 91 62 bd ee 3a be 3c 62 7d 1b bc
       -0.049587127 -0.05531483 0.02322146 -0.009490343
0001a0 2c dc 92 3d 38 71 69 3d 01 73 9c 3d 12 fe be bc
       0.07170901 0.05699274 0.07639123 -0.02331451
0001b0 cb 98 7a 3d 2e 4a 3d 3d cf 40 98 3d f2 a4 98 bd
       0.06118087 0.04621332 0.07434236 -0.07453336
0001c0 43 78 f2 3c 7f fb 05 bd f0 d5 10 bd ec df dd 3c
       0.02959836 -0.03271055 -0.035360277 0.027084313
0001d0 68 bf 39 3d 2f 3f 81 bd 68 19 7b bd a4 43 0d 3d
       0.045348555 -0.063108794 -0.061303526 0.034488335
0001e0 b8 6b a3 3d 55 95 09 bd cb 7f 8a 3c 56 90 81 3d
       0.0797953 -0.03358968 0.01690664 0.06326358
0001f0 0d 60 d3 ba a6 32 74 3d f9 b8 1a 3d 2d 37 24 3c
       -0.0016126648 0.059618615 0.03777406 0.010022921
000200 c8 2e a6 3d e0 a9 b4 3d c6 ec 8a bc 29 90 8a bd
       0.081143916 0.088214636 -0.016958605 -0.067657776
000210 58 19 af bd 77 d4 00 bd 6b 9d b0 bd 4c f1 ec 3c
       -0.08549756 -0.031452622 -0.08623775 0.028923653
000220 d7 bb aa bc 6e 35 22 3d 6e 6d 4d bc 82 da e5 3b
       -0.020841522 0.039601736 -0.012538297 0.0070145736
000230 5f 6c 4b 3d 32 44 9b 3c 1a aa 98 bc 92 7d 85 bd
       0.049663898 0.018953416 -0.018635798 -0.06518091
000240 62 09 95 3d 4c 18 02 3d 13 15 2e bd 1a a6 6e bd
       0.0727718 0.031761453 -0.042500567 -0.058263876
000250 01 75 63 bd 0f 65 99 bd a7 e6 b4 bd e2 30 06 bd
       -0.055531505 -0.074899785 -0.08833056 -0.032761462
000260 81 81 a2 3d b6 7b 89 3c 5c f1 9d bd a2 2f 54 3d
       0.07934857 0.016782623 -0.07712051 0.05180324
000270 f9 b4 83 3d 09 4d a3 3b 84 c4 c9 3c b8 86 0c 3c
       0.06431002 0.0049835485 0.024629839 0.008577041
000280 05 a2 8b 3d 11 10 2e bd 56 97 8b 3d 18 29 a4 bd
       0.06818012 -0.04249579 0.068159744 -0.080156505
000290 5f 6c ff bc 74 7e fa bb 03 85 d9 bb 2e 3f 60 3d
       -0.031179605 -0.007644469 -0.0066381707 0.054747753
0002a0 3e 41 37 3d 73 c7 28 bc 29 c7 f0 3c 3f fb 76 bd
       0.044739954 -0.010301459 0.029391842 -0.0602982
0002b0 42 4f 83 bd c7 d6 08 3b 61 cd 1e 3c de 88 14 3d
       -0.064116016 0.002087997 0.009692521 0.03626334
0002c0 ed c9 3b bd 87 37 03 bd 74 e3 83 bd fb 5d 56 3c
       -0.04584687 -0.032035377 -0.064398676 0.01308393
0002d0 fe ef 90 bd ae 2a 85 3b 35 40 58 3d 11 fd 0b 3d
       -0.07077025 0.0040639257 0.052795608 0.03417689
0002e0 e8 07 ad bd e0 0b 01 bd ff 07 b2 3d 08 db 4d bc
       -0.084487736 -0.031505466 0.086929314 -0.012564428
0002f0 da b9 30 3d cf c0 c8 bc 04 ce a1 3d 83 18 de 3b
       0.04314599 -0.024506 0.079006225 0.0067778244
000300 da 16 5a 3d 51 44 f1 3c 73 21 b2 bc d2 2d d4 3c
       0.05324445 0.029451521 -0.021744465 0.025900755
000310 7b 58 c1 3c bd 8a c3 bb 65 98 4c bd 33 a8 42 3d
       0.023601761 -0.0059674666 -0.049950022 0.04752369
000320 d7 31 0d bd 43 4a 1b 3d 82 36 a9 3c 7f 7a ac 3d
       -0.03447136 0.03791262 0.020655874 0.08421802
000330 6b 8b ae bd ae fa cc bc f5 11 85 3d a8 d2 75 bd
       -0.085226856 -0.025021877 0.06497566 -0.06001535
000340 33 6e 5f 3d 50 28 ff bb 79 5e 81 3c a0 0d 45 bd
       0.054548454 -0.007786788 0.015792118 -0.048108697
000350 4a d2 a6 3d db a8 8a 3d 4a 0c 7c bc cf 23 65 bc
       0.08145578 0.06770488 -0.015383789 -0.013985588
000360 cf 73 57 bd 42 ca ae 3d 38 20 a4 bc 8c b1 3a bd
       -0.052600678 0.08534671 -0.020034894 -0.04557948
000370 ba 90 5f bd f0 9f ca 39 e6 4a b3 bc 4e 9a 8b bc
       -0.05458138 0.00038647605 -0.0218863 -0.017041352
000380 dc c8 1a 3d 49 a2 ad bd 87 8b 92 3c cf 66 43 3d
       0.03778921 -0.08478219 0.017888797 0.047705468
000390 a0 ce 47 3d a2 ac 9e 3d 8a 50 8d 3d 5d ce c6 bc
       0.048781037 0.07747771 0.06900127 -0.024268324
0003a0 b7 3a 1b 3d c0 42 14 bc b4 23 ba 3c 20 ab 06 bd
       0.03789779 -0.009049118 0.022722103 -0.03287804
0003b0 3d d9 8f bb 5c b7 83 3d ef 03 93 3c 49 0a 5f bd
       -0.0043899105 0.064314574 0.017946212 -0.054453168
0003c0 27 5d 4c 3c 9e 7b 16 bc f2 c2 b2 bd bb e6 96 bd
       0.012473381 -0.009184746 -0.08728589 -0.07368227
0003d0 31 a5 34 3d b2 02 f4 bc d1 46 a9 3d 13 c8 83 3d
       0.04410285 -0.029786441 0.0826546 0.064346455
0003e0 a7 d7 27 3c d0 b3 07 bd 54 e9 47 bd 26 4a ac bd
       0.010244287 -0.033130467 -0.048806503 -0.0841258
0003f0 64 db b4 3d 0e 9d 4c bb 77 a7 7a 3b ba 06 8d bc
       0.08830908 -0.0031221542 0.003824679 -0.017215122

lstm.bias_ih_l1 f4 [512]
000000 97 f4 fc 3d c8 11 32 3d 06 db b7 bc 5d 47 85 3d
       0.12351339 0.04347399 -0.022443306 0.06507752
000010 0b 1f bc ba 2d 57 35 3c 2d 62 4f 3a 20 21 93 3d
       -0.0014352513 0.011068148 0.00079110527 0.071840525
000020 de bb a0 3d 9a 8f cd 3d 5d bd 95 3d 95 cd bc 3d
       0.07848333 0.100371554 0.07311509 0.09218899
000030 42 35 24 3e 72 47 99 3c 00 bc 6b 3b 31 70 36 3c
       0.16035941 0.018710826 0.003597021 0.011135147
000040 96 d7 e5 3d 81 e7 15 3e 10 4a 4e bc e2 bd 10 3e
       0.112227604 0.14639093 -0.0125909 0.14134935
000050 2a 8f 9b 3c 8d a4 5a 3d 7a fa 35 bc e4 2e 18 3e
       0.018989164 0.053379584 -0.011107082 0.14861637
000060 c3 db 78 3d aa 0b ac 3d ae 24 df 3d 19 27 4c 3d
       0.060756456 0.08400662 0.10895668 0.049841974
000070 63 fd c2 3d 4f f2 ee 3d 8e 83 c8 bc 6a 01 8f 3d
       0.09520986 0.116673104 -0.024476793 0.069826916
000080 59 59 14 3d 94 3f 8a 3d 33 1e e3 bb da 59 ed 3d
       0.03621802 0.06750408 -0.0069310903 0.115894035
000090 72 cb e8 3c d5 3e e3 bc 61 a6 ed 3d 53 c4 15 3e
       0.028417323 -0.027739922 0.11604 0.14625673
0000a0 09 45 c9 3d 14 bb fb 3d ec 3f 06 3e dd 0f 02 3d
       0.098276205 0.12291542 0.13110322 0.03175341
0000b0 52 59 25 bc 33 ff cb bc 57 c7 12 3e 30 88 53 3c
       -0.010092096 -0.024901962 0.14333855 0.012910888
0000c0 b8 ae 98 3d 92 98 11 3e 39 8b b6 3d 80 c6 40 3d
       0.074552 0.14218357 0.08913273 0.047064304
0000d0 71 c9 f7 bb f4 3d 91 3d f5 c3 c5 3c cd 13 e6 bc
       -0.0075618555 0.07091895 0.024141291 -0.028085614
0000e0 bd ae fc 3c 40 de 32 3b fb 71 df 3d af bb 01 3b
       0.03084504 0.0027293116 0.10910412 0.0019795706
0000f0 70 0f 0a 3e 0e a1 88 bc 7f 07 39 3d ed 18 f1 3c
       0.13482451 -0.01667836 0.045173164 0.02943083
000100 a3 08 06 3e 15 91 08 3e 13 67 e6 3c ac c6 10 3e
       0.13089232 0.13336594 0.028125321 0.14138287
000110 ba cf 6d 3c 0d 2b ec 3c f2 a0 02 3d e0 0d 68 3d
       0.014514858 0.028829122 0.03189177 0.056653857
000120 0d bc db 3d ce 37 20 3d 2d a4 b6 bc d3 23 e9 3c
       0.10729227 0.03911572 -0.022295082 0.028459465
000130 1b 03 f2 3d c9 27 d9 3d b2 33 75 3d 52 6e 87 3d
       0.118169986 0.106032915 0.059863754 0.06612839
000140 f8 c4 ef 3d 74 7f 4f 3d 9e 1b 47 3d a2 92 e7 3d
       0.11707491 0.05065866 0.048610322 0.11307265
000150 5b 26 fd 3d 7f 53 ec 3d d7 6a 02 3e 3c c5 06 bc
       0.12360831 0.11539363 0.12736069 -0.008225735
000160 43 2b 66 bb ce 85 fb 3c c2 7f 35 3d 18 4d e1 3d
       -0.0035121 0.030703451 0.044311292 0.110010326
000170 e1 93 ac 3d 16 9a 67 3d ae 7d 60 3d dd e0 ab 3d
       0.08426643 0.056543432 0.054807357 0.08392499
000180 36 a1 ed 3d 0f 47 ad 3d f1 58 08 3e f3 1d 32 3d
       0.11603014 0.08460819 0.13315178 0.043485593
000190 f7 f7 18 3e a9 00 e7 3d c5 01 17 3d 2e 49 09 3c
       0.14938341 0.11279423 0.036866922 0.008379264
0001a0 31 27 90 bc ea 6c 52 3d b4 12 1d 3e b6 3c 36 3d
       -0.017596813 0.0513734 0.15339166 0.044491492
0001b0 b0 d8 92 3d cc 9e e9 3d 95 5e 07 3e 74 8e 13 3e
       0.07170236 0.11407241 0.13219674 0.1440981
0001c0 5f 7b 10 3e ac 13 26 3d f8 a8 10 3d b2 59 19 3d
       0.14109562 0.040546104 0.03531739 0.037439056
0001d0 c2 e5 15 3e 98 f3 67 3d 94 15 10 3e e7 67 61 3d
       0.14638427 0.056628793 0.14070731 0.05503073
0001e0 27 9a b7 3d bf d5 a2 3d f5 77 d2 bc c4 de a9 3c
       0.08964949 0.07950925 -0.025691966 0.020736106
0001f0 75 e5 fc 3d b6 82 db 3d 91 f0 ca 3d a5 d0 07 3e
       0.12348453 0.107182905 0.09909166 0.13263185
000200 87 da 87 3d ce 83 ba bc 85 80 98 3d b1 59 1e bd
       0.06633478 -0.022767927 0.07446388 -0.038659755
000210 77 0e 94 bd 26 a5 90 bc d2 90 16 3d cb 42 5e bd
       -0.072293214 -0.017656874 0.036759205 -0.054262917
000220 cd 14 6a 3d d5 a9 a4 3d 6f 04 84 bc 76 20 ca bc
       0.057148743 0.080402054 -0.016115395 -0.024673682
000230 66 81 87 bc 75 d1 8f 3b e6 20 ad bc 4c 70 5d 3d
       -0.016541194 0.004388983 -0.021133851 0.054062173
000240 55 14 41 bd 15 d5 00 3d 7e 28 dd 3c 02 96 65 3b
       -0.04713853 0.03145321 0.026996847 0.0035032039
000250 36 29 f8 3c f2 ed 9c 3d 86 a1 5e 3d af d2 c4 bc
       0.030293088 0.07662572 0.05435326 -0.024026243
000260 98 3c 8d bd b9 10 4f bd 3f 7b b1 bd de 56 6d bd
       -0.06896323 -0.050553057 -0.086660855 -0.05794417
000270 28 c3 82 3d 2b d3 7f 3d cb d6 ff bb 2e c5 ab 3c
       0.06384879 0.062457245 -0.0078075877 0.020968046
000280 0d 05 4a 3d 8b b3 b4 bd 3e b7 9a bd b1 db 82 3c
       0.049321223 -0.088233076 -0.07554482 0.015973898
000290 97 a1 d8 3b 1d 3f b4 3c 9a e6 66 bd 91 e3 e1 bc
       0.00661106 0.022002751 -0.056372263 -0.027574332
0002a0 98 b1 89 3d f8 44 eb 3b ed 06 59 bd db 08 a5 3c
       0.067233264 0.0071798526 -0.05298512 0.020145824
0002b0 05 8d 2d 3c a4 75 ac 3d 3f 9a 6a bc 7a d3 a3 3d
       0.010592704 0.08420876 -0.014319002 0.0799932
0002c0 c0 a7 8a 3d 55 77 99 bd 08 53 61 bc 6b d3 a2 3d
       0.06770277 -0.07493464 -0.013752706 0.07950481
0002d0 20 3d 86 3c 81 af 8a 3d 1f 86 80 3d 23 20 27 3d
       0.016386569 0.06771756 0.062755816 0.040802132
0002e0 1b eb 96 3d a4 6b 64 3d a8 21 1b 3d fd 50 eb bb
       0.073690616 0.055766717 0.037873894 -0.0071812854
0002f0 da 57 a3 3d a4 c6 8d 3b d6 ca c9 bb 33 39 5f 3d
       0.07975741 0.0043266583 -0.006158213 0.05449791
000300 1d 55 25 3d 27 60 64 bd 7e 68 21 3d f0 d1 9a bd
       0.040364373 -0.05575576 0.039406292 -0.07559574
000310 32 82 9c 3d 1c 3c 62 3d 4f 85 96 3d 0b 4f 56 3d
       0.0764202 0.055233106 0.07349645 0.052321475
000320 97 a6 8d bd 5b 6e 7e 3d 85 5c 72 3d 7e 60 25 bd
       -0.0691654 0.062116962 0.059170265 -0.040375225
000330 24 ee 00 3d be e8 58 bd dd 13 ca 3c 64 81 a2 bc
       0.03147711 -0.052956335 0.024667675 -0.019837089
000340 9d ed c1 bc 3f 67 d1 bc e4 ff 25 3d b0 2b 86 bd
       -0.023672873 -0.025561927 0.04052724 -0.065513015
000350 03 6b 60 bb c4 9a ec b9 b4 c3 d0 3c 6b 64 97 bd
       -0.0034243471 -0.00045128737 0.025483944 -0.073922
000360 e8 8f 8d bc dd ce 8f bd 5c 14 51 3c 96 5c a3 bd
       -0.017280534 -0.07021878 0.012761202 -0.07976644
000370 75 a0 cc bc 30 f9 97 bd 19 be 93 bd 90 5a 64 bd
       -0.024978856 -0.074205756 -0.072139926 -0.05575043
000380 aa ae 03 3d 51 82 72 3d 82 2d 4c bc fc 7f 8e 3d
       0.032148995 0.05920631 -0.012462022 0.06958005
000390 b2 27 09 bd 08 7e 15 bd 01 78 16 3d e6 5a 92 bd
       -0.033485122 -0.036497146 0.03673554 -0.07146244
0003a0 83 cd a8 bd 97 54 eb bc b2 b0 16 3d 79 99 6e bd
       -0.08242323 -0.028726859 0.036789604 -0.05825183
0003b0 d6 ec 48 3d f8 b3 11 bd 3e c6 96 3c e6 c5 a6 bd
       0.04905399 -0.035572022 0.018405076 -0.08143215
0003c0 52 b4 2f 3d 62 2d 71 3d 73 64 42 3c 02 7b 6d 3c
       0.042896576 0.05888117 0.011864769 0.014494659
0003d0 ab b0 7a bd 1a cd 98 3d c9 16 84 3d 1f 46 f7 bc
       -0.06120364 0.07460995 0.064496584 -0.030184804
0003e0 d4 dd 4d bd e6 c9 80 3d 66 3e 6a 3d 37 f2 96 3d
       -0.05026038 0.06288509 0.057188414 0.073704176
0003f0 86 ba 2a 3d ff 0b 3c bd 27 52 e8 bc 3a 38 11 3c
       0.04168179 -0.045909878 -0.028359486 0.008863503
